…
                            input_shape=(28, 28, 1)))
    model.add(layers.MaxPooling2D((2, 2)))
    model.add(layers.Conv2D(64, (3, 3), activation='relu'))
    model.add(layers.MaxPooling2D((2, 2)))
    model.add(layers.Conv2D(64, (3, 3), activation='relu'))

    model.summary()
  #+END_SRC

  #+RESULTS: 282ab9c2-e834-4153-92cc-fa70d1fff6b3
  :results:
  Model: "sequential_5"
  _________________________________________________________________
  Layer (type)                 Output Shape              Param #   
  =================================================================
  conv2d_17 (Conv2D)           (None, 26, 26, 32)        320       
  _________________________________________________________________
  max_pooling2d_10 (MaxPooling (None, 13, 13, 32)        0         
  _________________________________________________________________
  conv2d_18 (Conv2D)           (None, 11, 11, 64)        18496     
  _________________________________________________________________
  max_pooling2d_11 (MaxPooling (None, 5, 5, 64)          0         
  _________________________________________________________________
  conv2d_19 (Conv2D)           (None, 3, 3, 64)          36928     
  =================================================================
  Total params: 55,744
  Trainable params: 55,744
  Non-trainable params: 0
  _________________________________________________________________
  :end:

* Dense Layer を追加する
  add 関数により *元のモデルを崩さないまま* レイヤーを追加することができます。

#+NAME: 109562b6-d48a-4e71-b310-6332820a3fd8
#+BEGIN_SRC ein-python :session localhost :results raw drawer :exports both
  model.add(layers.Flatten())
  model.add(layers.Dense(64, activation='relu'))
  model.add(layers.Dense(10, activation='softmax'))

  model.summary()
#+END_SRC

#+RESULTS: 109562b6-d48a-4e71-b310-6332820a3fd8
:results:
Model: "sequential_5"
_________________________________________________________________
Layer (type)                 Output Shape              Param #   
=================================================================
conv2d_17 (Conv2D)           (None, 26, 26, 32)        320       
_________________________________________________________________
max_pooling2d_10 (MaxPooling (None, 13, 13, 32)        0         
_________________________________________________________________
conv2d_18 (Conv2D)           (None, 11, 11, 64)        18496     
_________________________________________________________________
max_pooling2d_11 (MaxPooling (None, 5, 5, 64)          0         
_________________________________________________________________
conv2d_19 (Conv2D)           (None, 3, 3, 64)          36928     
_________________________________________________________________
flatten_4 (Flatten)          (None, 576)               0         
_________________________________________________________________
dense_8 (Dense)              (None, 64)                36928     
_________________________________________________________________
dense_9 (Dense)              (None, 10)                650       
=================================================================
Total params: 93,322
Trainable params: 93,322
Non-trainable params: 0
_________________________________________________________________
:end:

* モデルを訓練する
  #+NAME: 0698d9a2-aee0-49a4-aa2f-fa2c1c5e796b
  #+BEGIN_SRC ein-python :session localhost :results none
    model.compile(optimizer='adam',
                  loss='sparse_categorical_crossentropy',
…
