…
      Conv2D(64, 3, padding='same', activation='relu'),
      MaxPooling2D(),
      Flatten(),
      Dense(512, activation='relu'),
      Dense(1, activation='sigmoid')
  ])

  model.compile(optimizer='adam',
                loss='binary_crossentropy',
                metrics=['accuracy'])

  model.summary()
#+END_SRC

#+RESULTS: aece40e6-6e15-4a64-9cbf-8339b510091f
:results:
Model: "sequential"
_________________________________________________________________
Layer (type)                 Output Shape              Param #   
=================================================================
conv2d (Conv2D)              (None, 150, 150, 16)      448       
_________________________________________________________________
max_pooling2d (MaxPooling2D) (None, 75, 75, 16)        0         
_________________________________________________________________
conv2d_1 (Conv2D)            (None, 75, 75, 32)        4640      
_________________________________________________________________
max_pooling2d_1 (MaxPooling2 (None, 37, 37, 32)        0         
_________________________________________________________________
conv2d_2 (Conv2D)            (None, 37, 37, 64)        18496     
_________________________________________________________________
max_pooling2d_2 (MaxPooling2 (None, 18, 18, 64)        0         
_________________________________________________________________
flatten (Flatten)            (None, 20736)             0         
_________________________________________________________________
dense (Dense)                (None, 512)               10617344  
_________________________________________________________________
dense_1 (Dense)              (None, 1)                 513       
=================================================================
Total params: 10,641,441
Trainable params: 10,641,441
Non-trainable params: 0
_________________________________________________________________
:end:


* モデルの訓練
#+NAME: 18ba38f7-8f75-4704-9091-bbf366e5c5d7
#+BEGIN_SRC ein-python :session localhost :results none
  history = model.fit_generator(train_data_gen,
                                steps_per_epoch=total_train // batch_size,
…
      Conv2D(32, 3, padding='same', activation='relu'),
      MaxPooling2D(),
      Conv2D(64, 3, padding='same', activation='relu'),
      MaxPooling2D(),
      Dropout(0.2),
      Flatten(),
      Dense(512, activation='relu'),
      Dense(1, activation='sigmoid')
  ])

  model_new.summary()
#+END_SRC

#+RESULTS: eb15deb0-3876-4208-9d38-5c14ee0da732
:results:
Model: "sequential_2"
_________________________________________________________________
Layer (type)                 Output Shape              Param #   
=================================================================
conv2d_6 (Conv2D)            (None, 150, 150, 16)      448       
_________________________________________________________________
max_pooling2d_6 (MaxPooling2 (None, 75, 75, 16)        0         
_________________________________________________________________
dropout_2 (Dropout)          (None, 75, 75, 16)        0         
_________________________________________________________________
conv2d_7 (Conv2D)            (None, 75, 75, 32)        4640      
_________________________________________________________________
max_pooling2d_7 (MaxPooling2 (None, 37, 37, 32)        0         
_________________________________________________________________
conv2d_8 (Conv2D)            (None, 37, 37, 64)        18496     
_________________________________________________________________
max_pooling2d_8 (MaxPooling2 (None, 18, 18, 64)        0         
_________________________________________________________________
dropout_3 (Dropout)          (None, 18, 18, 64)        0         
_________________________________________________________________
flatten_2 (Flatten)          (None, 20736)             0         
_________________________________________________________________
dense_4 (Dense)              (None, 512)               10617344  
_________________________________________________________________
dense_5 (Dense)              (None, 1)                 513       
=================================================================
Total params: 10,641,441
Trainable params: 10,641,441
Non-trainable params: 0
_________________________________________________________________
:end:

** モデルの訓練
#+NAME: 539ebb6e-f740-4036-b0df-7ea15e9056c7
#+BEGIN_SRC ein-python :session localhost :results none
  model_new.compile(optimizer='adam',
                    loss='binary_crossentropy',
…
